ensemble82.pt (torch, 6367 bytes, 4 tensors)

fcs.0.weight f4 [64, 15]
000000 d7 33 8f bd 3d a8 5a bc 28 fa d8 3c 95 45 df 39
       -0.069923095 -0.013345775 0.026486471 0.00042585717
000010 01 71 1d 3e 31 93 1f 3e 2f 5e 46 3d fd 86 6b be
       0.15375139 0.15583493 0.048429664 -0.23000713
000020 a1 b5 5d 3e dd ed 59 be 6b fa c8 bd c1 cb 20 be
       0.21651317 -0.21282144 -0.098133884 -0.15702726
000030 c9 77 58 be 75 d6 71 be 1d ad 53 3e 28 a2 88 3d
       -0.21139444 -0.23616965 0.20671506 0.06671554
000040 ac 4f 44 3e 43 94 39 3c 6c e3 60 3e e2 b1 d6 3d
       0.19171017 0.011326852 0.21961755 0.10483147
000050 f6 b2 5d 3e 4e 7d e4 bd 1a 2a 82 3d 74 c5 7b 3e
       0.216503 -0.111567125 0.063556865 0.24587041
000060 03 c3 21 3e 2b e9 81 3d e1 b9 00 be 62 f8 9c 3e
       0.15797047 0.063433014 -0.12570907 0.3065825
000070 d1 4f 03 3d e5 4b 1e be 76 19 a4 bd 7f 22 87 be
       0.03205854 -0.15458639 -0.08012669 -0.26393506
000080 3f b4 92 3e 24 16 3f 3e fd 55 4b bd 45 b0 42 be
       0.28653142 0.1866079 -0.04964255 -0.19012554
000090 6c 64 8b 3d 23 bd 8e be 0b 87 89 3d 96 6c 0f 3e
       0.06806263 -0.27878675 0.067152105 0.14006266
0000a0 1a 34 3b be 09 be 94 3e a5 37 34 3e 4c 13 e7 3d
       -0.18281594 0.29051235 0.17599352 0.112829775
0000b0 95 46 40 3e 54 ba 8a 3e 9d cc 25 bd bf e7 3b 3e
       0.18776925 0.27095282 -0.040478338 0.18350123
0000c0 13 30 88 3e 9a 88 3f ba fa 67 4a 3e 1d 9a 2b be
       0.26599178 -0.0007306427 0.19766226 -0.16758008
0000d0 49 e9 1f be 70 b4 9e bd 29 36 dc bd 00 f7 35 be
       -0.15616335 -0.077492595 -0.10752518 -0.17770004
0000e0 40 2d ea 3d 91 42 61 3d d7 66 72 3e 55 c8 56 bd
       0.11434412 0.054995123 0.23672043 -0.052437145
0000f0 b2 23 29 3e 15 cb ed bc 45 96 6c bc f0 7a 77 be
       0.16517523 -0.029027501 -0.014440124 -0.2416799
000100 46 86 80 3d a5 76 3d be a2 04 28 be 86 da 37 3e
       0.062756106 -0.1850229 -0.16408017 0.17954454
000110 dd dd 66 be 6a 3e 40 be 14 3d dd bd 9a 48 21 be
       -0.22545572 -0.18773809 -0.10802665 -0.15750352
000120 0c 8f 8d 3c 1f 39 80 3e a9 b7 75 3e 92 ee c0 3d
       0.017280124 0.2504358 0.23995842 0.09420504
000130 45 4e 3d be 2b fa b0 3d 11 bf 72 bd ad a4 7c be
       -0.18486889 0.08641466 -0.059264246 -0.24672194
000140 87 c6 ed 3d eb 7e 85 3d 1d 4e 8f be e6 52 72 3d
       0.11610132 0.06518348 -0.27989283 0.05916109
000150 be 44 26 3e 82 e7 81 bc 95 ee 7d bd ee fc 3b be
       0.1623716 -0.015857462 -0.061995108 -0.18358204
000160 4b 11 18 be 09 41 52 3e 26 89 23 3e 0d 42 80 3e
       -0.14850347 0.20532621 0.15970287 0.25050393
000170 49 df 0b be 34 b4 ca bd 99 39 58 bd d6 22 56 3d
       -0.13659395 -0.09897652 -0.052789304 0.052279316
000180 0e 89 36 be 38 ec 00 be dd e9 ee b9 9e 45 01 3e
       -0.1782572 -0.1259011 -0.0004556914 0.12624213
000190 8e 71 f5 3c 1c 74 cb bd 22 44 66 3e e7 f7 99 be
       0.029961374 -0.099342555 0.22486928 -0.30071947
0001a0 f0 7f 3e be 19 00 a8 3d 25 d5 cc bd 64 9b 81 3e
       -0.18603492 0.082031436 -0.100015916 0.25313866
0001b0 a3 f5 22 3e c0 a5 1f 3e 07 d1 82 3e a5 33 de bd
       0.15914015 0.15590572 0.255501 -0.10849694
0001c0 eb 2b 98 3d f5 41 06 be d1 8b 74 3e 7b 64 7b be
       0.07430252 -0.13111098 0.2388146 -0.24550049
0001d0 4c 99 ac bd 4a 48 8b be 35 f3 2e bd 02 68 50 3d
       -0.084276766 -0.2720359 -0.04271241 0.05088044
0001e0 fd b2 11 3e 5e 8d 03 be 1a 7f 64 be b7 cc 08 3e
       0.14228435 -0.12846896 -0.2231411 0.13359343
0001f0 23 90 53 be d8 36 3c be 5f 0f 74 3b e1 16 23 be
       -0.20660453 -0.18380296 0.0037240607 -0.15926696
000200 76 60 86 3c a3 eb 89 bc be 66 a6 be d0 71 2f be
       0.016403418 -0.016835993 -0.3250026 -0.1713326
000210 f2 59 9e 3b 5a d4 93 3d f0 74 da 3c d5 be 0e 3e
       0.0048324997 0.07218237 0.026667088 0.13939984
000220 87 c3 ff 3a fc af a7 bd 42 1e 58 3e 41 f5 79 3e
       0.0019513228 -0.08187863 0.21105292 0.24409963
000230 c9 39 87 bd b6 c7 b7 3d 6f d3 fa 3d f4 7f c8 3c
       -0.066028185 0.08973639 0.12247359 0.024475075
000240 9c 24 b8 3d 67 24 a8 bd 20 08 43 be 61 12 3a 3d
       0.08991358 -0.08210068 -0.19046068 0.045427684
000250 07 1c 5d be 55 aa 03 3e aa 06 22 be 4f 6c 94 bc
       -0.21592723 0.12857945 -0.15822855 -0.018118052
000260 6e 50 e0 3d cd e6 0d bd 3b 3f b1 3d a0 56 36 be
       0.10952841 -0.034643937 0.086546384 -0.17806482
000270 6d f2 54 be 8c 8a 40 3e 7d 5d 34 3e ab 0f b1 bd
       -0.20795603 0.18802851 0.17613788 -0.086455666
000280 1c 88 08 be be 93 2f bc 03 e4 3b 3e 1d d9 94 bd
       -0.13333172 -0.010716377 0.18348698 -0.072679736
000290 4b 88 4f 3c 6b f2 fc 3d 0d 05 9c be c9 d4 59 bd
       0.012666772 0.12350925 -0.30472603 -0.053181443
0002a0 1c 00 91 3e df 75 a8 be 69 68 a7 3d 28 0a 22 3e
       0.28320396 -0.32902429 0.081742115 0.15824187
0002b0 a4 d5 17 ba a2 a3 4b 3e 3d af 70 3e 18 2d a3 be
       -0.0005792028 0.1988664 0.23504348 -0.3187034
0002c0 84 68 80 3e 73 f3 77 be 5e e1 39 be 2f 30 13 3e
       0.2507974 -0.24213962 -0.18152377 0.1437385
0002d0 ed c2 4a 3d 7f 11 05 3e 12 66 0f 3e ab 7b 33 be
       0.049502302 0.12994955 0.1400378 -0.17527644
0002e0 0f 26 65 be c0 ca bb bd ba ae 5e 3e be 47 87 3e
       -0.223778 -0.09169531 0.2174634 0.26421922
0002f0 f3 f4 30 be 88 3a da bd d0 c5 1c 3e ff 85 35 bd
       -0.1728094 -0.10655695 0.15309834 -0.04431724
000300 ee 2d b3 3d 77 dd 09 3e fe 76 0c be dd 9c 2c 3b
       0.08748995 0.13463388 -0.13717267 0.0026338615
000310 d4 65 d4 3c f0 49 16 3d f3 51 91 bd 0f 01 51 be
       0.025927462 0.036691606 -0.07095709 -0.2041056
000320 f2 41 38 be 9e 41 12 3e 2c 20 28 be 8a ea 39 3e
       -0.17993906 0.14282843 -0.16418523 0.18155876
000330 a4 bc 48 3d c1 96 08 3d a2 89 cd bd 4f b5 67 be
       0.049008027 0.033346895 -0.10036017 -0.22627757
000340 24 37 2a 3e 3c 63 8e 3e 63 57 92 3c 61 81 35 be
       0.16622597 0.27810085 0.017863935 -0.17725135
000350 1c 34 fd bc 08 d7 58 be 0c d3 62 3e 27 23 95 3a
       -0.030908637 -0.21175778 0.2215082 0.0011378274
000360 56 3b 82 be 5e 1c f7 3d 36 33 5e bd 97 2f ed bd
       -0.25435895 0.120659575 -0.054248057 -0.11581343
000370 6d a6 25 3e ed 90 41 3e 8d cb 5a be ee 28 36 3e
       0.16176768 0.18902941 -0.21366711 0.17789051
000380 b2 87 35 be 47 92 85 bd a0 3d 03 bc ac de d2 bd
       -0.17727545 -0.06522041 -0.008010298 -0.102963775
000390 1a 75 d8 3d 87 c9 d9 bd 1a 78 77 be 8e f1 2e 3e
       0.1056921 -0.106341414 -0.24166909 0.17084333
0003a0 5b be 78 be 6c 13 45 3d 12 29 99 3d 01 8d 1a 3e
       -0.24291365 0.048114225 0.07478537 0.15092851
0003b0 39 ae 5a be cb 54 ce bd 9e 98 4d 3e df fa 41 be
       -0.21355523 -0.10074767 0.2007775 -0.18943356
0003c0 1b d4 57 be ee d4 ba 3b 22 b0 c2 3d 7b 33 49 be
       -0.21077006 0.0057016527 0.09506251 -0.19648544
0003d0 50 ee 83 3d f8 54 06 be c0 4b 90 be a5 bc 3e 3e
       0.06441939 -0.1311835 -0.28182793 0.1862665
0003e0 e5 ad 00 be 84 06 98 be 35 c0 99 3d 09 01 a7 bd
       -0.12566335 -0.2969247 0.07507364 -0.08154494
0003f0 09 a4 58 3e b6 4d 2b be 06 58 9f 3d 8c 94 d3 bd
       0.21156324 -0.16728863 0.07780461 -0.103310674

fcs.0.bias f4 [64]
000000 a5 42 68 3e 22 14 1b be 98 90 d9 bc 16 50 fd 3d
       0.22681673 -0.15144399 -0.026558205 0.12368791
000010 49 a9 0b be b8 a6 d1 bd 5d b4 2e be 56 8f fa bd
       -0.13638796 -0.10236877 -0.1706099 -0.122343704
000020 60 eb 4b be ac 20 3f bc c9 1b 74 be 08 70 f0 bd
       -0.19914007 -0.011665504 -0.23838724 -0.11740118
000030 d8 dc c5 bb d7 fa 3e 3c 70 0c f4 3d 49 b8 09 be
       -0.0060382895 0.011656485 0.11916435 -0.13449205
000040 d9 ae 31 3e 88 06 38 be 48 01 d9 3d 95 28 7a bd
       0.17351855 -0.17971241 0.105959475 -0.06107386
000050 f3 f0 66 be 61 67 52 bc 3d de d4 3d e0 8c a5 bd
       -0.22552852 -0.01284203 0.10393951 -0.080835104
000060 a3 ab dd bd 7e 8c 17 bd b5 83 e5 3d 7e 1c c5 bd
       -0.10823753 -0.03699922 0.11206762 -0.09624575
000070 8d 4d 74 3e 09 fc 6f be 51 74 86 be d1 44 f6 bd
       0.23857708 -0.23435988 -0.26260617 -0.120248444
000080 80 73 4d 3e fd c7 d6 3d b8 76 92 3c b5 e9 37 3e
       0.20063591 0.104873635 0.017878875 0.17960246
000090 96 2e 2a 3e ba 9e 12 3e 6b de 59 be b6 e5 2f bd
       0.16619334 0.14318362 -0.21276252 -0.04294368
0000a0 bb 96 c0 bd b5 5f eb 3d c5 10 6f be 28 9c 27 3e
       -0.094037496 0.11492864 -0.23346241 0.16368163
0000b0 ab bd 29 bd 96 a5 2c be 3a 38 b2 bd a2 68 47 bd
       -0.041440647 -0.16860041 -0.087021306 -0.04868377
0000c0 9b 87 15 be 0f 84 52 3e b3 11 01 3d b5 a4 46 bd
       -0.1460251 0.20558189 0.03151102 -0.04849692
0000d0 e2 6e 8f 3e f9 07 df 3d 06 e2 09 be c4 f5 e6 bd
       0.28014284 0.108901925 -0.13465127 -0.11277345
0000e0 57 fa 92 be 49 c2 49 3e 8b 36 a8 bd 56 19 39 3e
       -0.2870662 0.1970302 -0.08213528 0.18076071
0000f0 a0 8e 59 be 52 db 0b 3e 78 63 b7 bd 8e c6 04 3e
       -0.21245813 0.13657883 -0.08954519 0.12966368

fcs.2.weight f4 [3, 64]
000000 d5 5d 23 bd 21 4f 4b 3c b3 42 59 bc ce 2e c0 3d
       -0.039884407 0.0124090025 -0.013260531 0.09383927
000010 55 d8 a1 bd 6c be 8b bd 62 7c 01 bd 59 bc 2c bd
       -0.0790259 -0.068234295 -0.03161276 -0.04217181
000020 50 49 98 3d 30 ae b1 bc 47 26 05 bc 9f 46 99 bc
       0.07435858 -0.021689504 -0.008126802 -0.018710433
000030 69 96 c6 bd ec 49 52 bd 6d 2b 02 be d1 db c4 bd
       -0.09696657 -0.05134003 -0.12711878 -0.09612239
000040 9b 33 fb bc 0c f2 d7 bd 93 a0 0d be 69 a1 0a 3d
       -0.030664256 -0.10544214 -0.13830785 0.03384534
000050 cd e2 68 bd 31 85 0b bd cf e6 3a 3d 0f 72 4b bd
       -0.05685692 -0.034062568 0.045630272 -0.04966932
000060 a4 c9 35 be e9 91 f8 3d e5 8c bc 3c c8 67 4b bc
       -0.17752701 0.12137205 0.023016402 -0.01241488
000070 86 fb ce bd 3b 1b dc bd 2f ac e3 3d 4e e5 30 3e
       -0.10106568 -0.10747381 0.11116826 0.17274973
000080 7b ed 8e bd d8 27 15 3d 31 27 bc 3c ed 1c cc bd
       -0.069788896 0.03641495 0.022967907 -0.09966455
000090 fe b8 12 be 05 c0 42 bd aa 1a cc bd c6 a1 c9 3d
       -0.14328381 -0.047546405 -0.09966023 0.09845309
0000a0 be da 18 3a 53 b1 8b bd 5b 0a 46 bd cd a5 f2 bc
       0.0005830935 -0.06820931 -0.04834972 -0.029620076
0000b0 0a 54 bd bd 76 b3 68 bd be 8f 0d 3e ec b1 35 3e
       -0.09244545 -0.056811772 0.13824365 0.17743653
0000c0 dc 31 a9 3c b0 ab 98 bd ba 69 8c bd 3a 8b 3a 3e
       0.020653658 -0.07454622 -0.06856103 0.18217173
0000d0 b2 83 c0 3d 02 65 8b bd c9 0d 12 3e a7 f1 c1 bc
       0.09400119 -0.06806375 0.14263071 -0.0236748
0000e0 fc 86 b7 3b 7c 98 04 3e 3f bf 08 bd 64 25 0b be
       0.005600808 0.12948793 -0.03338551 -0.13588482
0000f0 d9 7e fc bc ea 59 8e bd ad e3 a2 bd 47 39 61 bd
       -0.030822204 -0.069507435 -0.07953582 -0.054986265
000100 66 09 0c bd d7 01 f2 bd e9 4e 93 bd dd 5f 1e bc
       -0.03418865 -0.11816757 -0.07192785 -0.00966641
000110 ce 56 01 3e 9e 14 25 be 86 93 20 be fa 87 18 bd
       0.1263077 -0.16121146 -0.15681276 -0.037239052
000120 2d 24 85 bd f8 e5 92 bc d7 7c 3b 3d 7c 9a f7 bd
       -0.065010406 -0.017931923 0.045773353 -0.120900124
000130 ae 94 31 3e db b9 70 bd f9 38 98 3d a5 07 22 3e
       0.17341873 -0.058770996 0.07432742 0.15823229
000140 84 0b 40 3d b3 64 f8 3d 41 fb a1 3b ae 85 ae 3d
       0.046885982 0.12128582 0.004943282 0.08521591
000150 0e a7 8b 3d 85 53 39 bd bd 1b fb bd 52 b6 09 3e
       0.068189725 -0.045245666 -0.1226115 0.13448456
000160 21 50 7d 3d a0 a5 13 be 16 32 e2 3d af 3b 98 3d
       0.061843995 -0.1441865 0.110447094 0.07433259
000170 9c 92 16 3e 9c 2d 27 bc ed 58 a4 3d ea d3 0d be
       0.14704365 -0.010203745 0.08024774 -0.1385037
000180 d1 48 b1 bc 8f 4a 20 3e 4f 40 87 3c f7 e8 da 3d
       -0.021641167 0.15653442 0.016510157 0.10688966
000190 62 8c f7 3d a6 8d c2 bd 00 7c b9 bd 28 67 20 be
       0.12087323 -0.094996735 -0.09056854 -0.15664351
0001a0 2c 5e dd bd 20 92 95 3d 35 86 69 3d 4b fd 58 3e
       -0.108089775 0.07303262 0.057012755 0.21190374
0001b0 ef 6d 6b bd 24 9b d8 bd 56 ed 27 3d b5 ab d0 bd
       -0.057477888 -0.10576466 0.040997826 -0.101890005
0001c0 91 28 9f bd 09 18 02 3d 8e 1a d8 bd 7d 33 89 bd
       -0.07771409 0.031761203 -0.1055194 -0.06699274
0001d0 f8 70 a3 bd 9b 0a d2 bc 4d 37 f8 bd f0 7b cb bc
       -0.079805315 -0.025639823 -0.12119923 -0.024839371
0001e0 a2 d5 49 3d fa 81 8d 3d d0 b5 5b 3d 88 1c a9 3d
       0.049276 0.06909557 0.053640187 0.08257395
0001f0 37 b6 04 be e1 c2 ba bc 5a e7 0c 3d d1 09 95 bc
       -0.12960134 -0.022798004 0.03440032 -0.018193157
000200 b8 4b 21 3e 64 3b e1 bd 4c 26 f8 3d bd ea 51 bd
       0.1575154 -0.10997656 0.121166795 -0.051249254
000210 c0 ac 14 3d 4b ba 0e 3e 60 d1 c7 bd ff 9a e0 3d
       0.03629756 0.13938253 -0.09756732 0.10967063
000220 f3 2b 0a bc b5 57 e0 bd da 7a 54 3d ab d6 2e 3d
       -0.00843333 -0.10954229 0.051874973 0.042685192
000230 c7 34 4f be 1e f4 be 3d 7d 1e 68 bd 82 89 c9 3c
       -0.20234977 0.093239054 -0.0566697 0.024601702
000240 84 b3 a8 bd f9 e4 4d bb 99 97 b8 3d 28 a5 75 bc
       -0.08237365 -0.0031416996 0.0901329 -0.01499299
000250 a8 57 21 3e 19 2d ec bc fb d7 00 be 09 d5 c4 3c
       0.15756094 -0.028830098 -0.1258239 0.024027364
000260 cf 38 02 3e b1 4e e0 bc ac 79 3c be 1a 2b 34 3d
       0.12716983 -0.027381273 -0.18405789 0.043986417
000270 a0 3e ca bd d5 55 a9 bc b0 7c 23 bd 15 80 7f 3c
       -0.09875226 -0.02067081 -0.039913833 0.015594502
000280 a3 14 42 3d 04 f3 60 bd 44 f3 1b be 9f ce 88 3c
       0.047382962 -0.054919258 -0.15229517 0.016700087
000290 0b ac 7b bd e6 59 14 3e 08 e7 89 3d 63 d3 23 3e
       -0.06144337 0.14487419 0.06733519 0.15998606
0002a0 61 75 59 3d 9f 5c 25 be d0 7d 38 3c 84 b5 e9 bc
       0.053090457 -0.16148613 0.011260465 -0.028528936
0002b0 76 1c 13 be 51 06 ed 3d 84 39 47 be a1 dd 6f 3d
       -0.14366326 0.115734704 -0.19455534 0.05856097
0002c0 be 63 64 3e 6e 62 33 be f5 0b 54 bd ae a4 4b bd
       0.22303674 -0.17518017 -0.051769216 -0.049717598
0002d0 92 a3 38 be 6e 5d aa bd 72 67 d7 3c 28 6a 60 be
       -0.18031147 -0.083186015 0.026294444 -0.21915495
0002e0 3f 2f 91 bd 1c c6 b6 bd cf a0 72 bb 43 1d ea 3d
       -0.070890896 -0.08924505 -0.003702212 0.114313625
0002f0 0a 65 06 3e 16 44 ca bd 73 ba f2 3d 97 37 84 3d
       0.13124481 -0.098762676 0.118519686 0.064559154

fcs.2.bias f4 [3]
000000 0c de 43 3c 7a c9 34 bc d1 9e 0c be
       0.011954796 -0.011034364 -0.13732459
